[2021-10-18 22:15:27.675489] G_SNDCGAN(
  (linear): Linear(in_features=128, out_features=8192, bias=True)
  (norm_init): SyncBatchNorm(8192, eps=1e-05, momentum=0.1, affine=True, track_running_stats=True)
  (main): Sequential(
    (0): ConvTranspose2d(512, 256, kernel_size=(4, 4), stride=(2, 2), padding=(1, 1))
    (1): SyncBatchNorm(256, eps=1e-05, momentum=0.1, affine=True, track_running_stats=True)
    (2): ReLU(inplace=True)
    (3): ConvTranspose2d(256, 128, kernel_size=(4, 4), stride=(2, 2), padding=(1, 1))
    (4): SyncBatchNorm(128, eps=1e-05, momentum=0.1, affine=True, track_running_stats=True)
    (5): ReLU(inplace=True)
    (6): ConvTranspose2d(128, 64, kernel_size=(4, 4), stride=(2, 2), padding=(1, 1))
    (7): SyncBatchNorm(64, eps=1e-05, momentum=0.1, affine=True, track_running_stats=True)
    (8): ReLU(inplace=True)
    (9): ConvTranspose2d(64, 3, kernel_size=(3, 3), stride=(1, 1), padding=(1, 1))
    (10): Tanh()
  )
)
[2021-10-18 22:15:27.675693] D_SNDCGAN(
  (linear): TinyDiscriminator(
    (l1): Linear(in_features=8192, out_features=512, bias=True)
    (l2): Linear(in_features=512, out_features=1, bias=True)
  )
  (projection): Sequential(
    (0): Linear(in_features=8192, out_features=512, bias=True)
    (1): LeakyReLU(negative_slope=0.1, inplace=True)
    (2): Linear(in_features=512, out_features=128, bias=True)
  )
  (projection2): Sequential(
    (0): Linear(in_features=8192, out_features=512, bias=True)
    (1): LeakyReLU(negative_slope=0.1, inplace=True)
    (2): Linear(in_features=512, out_features=128, bias=True)
  )
  (blocks): ModuleList(
    (0): Sequential(
      (0): Conv2d(3, 64, kernel_size=(3, 3), stride=(1, 1), padding=(1, 1))
      (1): LeakyReLU(negative_slope=0.1, inplace=True)
    )
    (1): Sequential(
      (0): Conv2d(64, 128, kernel_size=(4, 4), stride=(2, 2), padding=(1, 1))
      (1): LeakyReLU(negative_slope=0.1, inplace=True)
      (2): Conv2d(128, 128, kernel_size=(3, 3), stride=(1, 1), padding=(1, 1))
      (3): LeakyReLU(negative_slope=0.1, inplace=True)
    )
    (2): Sequential(
      (0): Conv2d(128, 256, kernel_size=(4, 4), stride=(2, 2), padding=(1, 1))
      (1): LeakyReLU(negative_slope=0.1, inplace=True)
      (2): Conv2d(256, 256, kernel_size=(3, 3), stride=(1, 1), padding=(1, 1))
      (3): LeakyReLU(negative_slope=0.1, inplace=True)
    )
    (3): Sequential(
      (0): Conv2d(256, 512, kernel_size=(4, 4), stride=(2, 2), padding=(1, 1))
      (1): LeakyReLU(negative_slope=0.1, inplace=True)
      (2): Conv2d(512, 512, kernel_size=(3, 3), stride=(1, 1), padding=(1, 1))
      (3): LeakyReLU(negative_slope=0.1, inplace=True)
    )
  )
)
[2021-10-18 22:15:27.675974] # Params - G: 3828739, D: 18568961
[2021-10-18 22:15:27.675985] {'dataset': 'cifar10', 'batch_size': 512, 'fid_size': 10000, 'loss': 'nonsat', 'max_steps': 200000, 'warmup': 3000, 'n_critic': 1, 'lr': 0.0002, 'lr_d': 0.0002, 'beta': (0.5, 0.999), 'lbd': 10.0, 'lbd2': 10.0}
…
